…
ed":"2024-09-05T20:08:30.900353Z","shell.execute_reply":"2024-09-05T20:08:30.955990Z"},"trusted":true},"execution_count":11,"outputs":[{"execution_count":11,"output_type":"execute_result","data":{"text/plain":"ActorCriticPolicy(\n  (features_extractor): FlattenExtractor(\n    (flatten): Flatten(start_dim=1, end_dim=-1)\n  )\n  (pi_features_extractor): FlattenExtractor(\n    (flatten): Flatten(start_dim=1, end_dim=-1)\n  )\n  (vf_features_extractor): FlattenExtractor(\n    (flatten): Flatten(start_dim=1, end_dim=-1)\n  )\n  (mlp_extractor): MlpExtractor(\n    (policy_net): Sequential(\n      (0): Linear(in_features=18, out_features=256, bias=True)\n      (1): Tanh()\n      (2): Linear(in_features=256, out_features=256, bias=True)\n      (3): Tanh()\n      (4): Linear(in_features=256, out_features=256, bias=True)\n      (5): Tanh()\n      (6): Linear(in_features=256, out_features=128, bias=True)\n      (7): Tanh()\n    )\n    (value_net): Sequential(\n      (0): Linear(in_features=18, out_features=256, bias=True)\n      (1): Tanh()\n      (2): Linear(in_features=256, out_features=256, bias=True)\n      (3): Tanh()\n      (4): Linear(in_features=256, out_features=256, bias=True)\n      (5): Tanh()\n      (6): Linear(in_features=256, out_features=128, bias=True)\n      (7): Tanh()\n    )\n  )\n  (action_net): Linear(in_features=128, out_features=1, bias=True)\n  (value_net): Linear(in_features=128, out_features=1, bias=True)\n)"},"metadata":{}}]},{"cell_type":"code","source":"rewards = sb.common.evaluation.evaluate_policy(model = best_model,\n                                               env = eval_env,\n                                               n_eval_episodes = 10,\n                                               deterministic = True,\n                                
…
